models/linkpred_model_final.pt (torch, 267173 bytes, 9 tensors)

sage.convs.0.lin_l.weight f4 [64, 384]
-4.895005e-06 -1.5557771e-07 2.3479354e-06 2.220854e-06 -3.258133e-07 -1.6238996e-06 1.8769344e-06 1.4686236e-06
-9.108228e-07 -3.6421025e-06 -3.310972e-06 -2.0200187e-06 -8.953367e-07 -2.5710965e-06 -2.5130776e-06 4.3610584e-07
-4.03935e-06 -4.379449e-06 2.6126945e-06 -4.1488e-07 -4.2510658e-07 1.5745832e-06 -3.5327148e-06 1.269691e-07
-4.0710866e-06 -2.8377342e-06 -3.6619156e-07 -2.818313e-06 1.55283e-06 5.5218834e-08 4.6347702e-07 -2.5182874e-06
1.3127814e-06 2.1416427e-06 -2.5967372e-06 -4.1927965e-06 -3.7704344e-06 -1.1048991e-06 -1.7055886e-06 2.7362219e-06
8.7088665e-09 3.459336e-06 -3.4011578e-08 -2.539312e-06 -1.7109295e-06 -7.006805e-07 1.8532131e-06 -3.5366218e-06
7.036478e-07 1.9246845e-06 -3.846185e-06 1.660007e-06 3.432009e-06 2.4096923e-06 -1.1701258e-06 8.4280066e-07
-3.57955e-06 1.6454848e-06 2.7523947e-06 1.2854539e-06 1.7043544e-06 -6.1371748e-06 -1.8943214e-06 2.604294e-06
1.4922055e-06 -6.5786185e-07 -4.230175e-06 2.3663226e-06 2.0100206e-06 3.3427316e-06 -3.8136282e-06 -4.6362134e-06
2.4090186e-06 3.1552008e-07 3.429479e-06 3.4771206e-06 6.9354735e-07 -5.941746e-07 2.3719713e-07 -5.1044094e-07
-1.5167025e-06 2.485956e-06 2.3460825e-06 -2.525194e-06 2.2401268e-06 1.348755e-06 2.2675515e-06 -5.7809405e-07
-5.166325e-06 -1.9507206e-06 4.0726773e-06 -5.7781983e-07 2.0925704e-06 -3.3562458e-06 -2.609686e-06 -1.2748021e-06
-1.5796235e-06 -3.157934e-06 -6.508526e-07 6.8491613e-06 -2.3395355e-06 4.793156e-06 8.259984e-07 2.9301193e-06
-1.1809379e-06 -6.591299e-07 -2.0501066e-06 2.3464167e-07 -2.4106555e-06 -4.208073e-06 -2.8741592e-06 2.6910614e-06
2.15304e-07 -2.4849498e-06 -1.5827167e-06 3.4434904e-06 3.4249201e-06 9.1231095e-07 1.1530733e-07 3.2015673e-06
-1.2998835e-06 -1.0070715e-06 1.9049494e-06 2.1597398e-06 1.923562e-06 1.560681e-06 4.2349393e-06 8.793486e-07
-2.1376613e-06 -2.499255e-06 -3.1747084e-07 -2.8339286e-06 -8.030024e-07 -3.1622773e-07 -2.2569814e-06 -1.4049469e-06
-1.8143298e-06 1.9484103e-06 2.4113215e-06 -1.1746823e-06 -7.0948147e-07 6.791155e-07 -4.0930227e-06 -3.853055e-07
1.3547835e-06 2.2614813e-06 -2.5978368e-06 -5.015738e-06 1.8602374e-06 -3.25343e-06 -1.091217e-06 -3.5836188e-06
-3.5202715e-06 -2.9407427e-06 8.7479157e-07 2.5397298e-06 -8.1251255e-07 -1.755259e-06 3.4640352e-06 9.746279e-07
-9.819564e-07 8.2970337e-07 -2.3123284e-06 -2.7250626e-06 -9.654879e-07 -1.8971531e-06 2.7155143e-06 3.805915e-06
2.0912726e-06 3.4757422e-06 2.5701668e-06 -4.9475952e-06 2.560531e-07 3.4541704e-06 1.2582008e-06 -2.5410495e-06
5.36765e-07 -1.6731377e-06 1.2685998e-06 1.5994042e-06 -2.3410716e-06 -2.9687385e-08 -3.3479712e-06 -1.8939802e-06
3.347527e-06 -8.08864e-07 3.3183553e-06 3.1253448e-06 1.1863492e-06 1.9463037e-06 9.737863e-07 3.765854e-06
1.2394719e-06 -2.504551e-06 6.04392e-07 -2.0851223e-06 -1.986585e-06 2.5730387e-06 -1.7865353e-06 -1.1270818e-06
2.6669397e-06 -2.9670286e-06 -2.3182026e-06 6.0444756e-07 -4.4054973e-06 -5.3266276e-06 -1.0923965e-06 1.932614e-06
4.604899e-06 1.4034902e-07 -2.4025264e-06 1.496577e-06 6.264095e-07 4.7272706e-06 2.131544e-06 -4.4839453e-08
4.518073e-07 -2.8051254e-06 5.322938e-07 -3.7185805e-06 2.5192112e-06 9.433538e-07 -1.7219509e-07 4.4459432e-07
2.850669e-06 9.260682e-07 -7.4984644e-07 -2.1765818e-06 8.827917e-07 4.0066357e-06 -2.152125e-06 1.442362e-06
1.1236783e-06 2.9404346e-06 -2.7039428e-06 -2.8783065e-06 3.5538837e-06 -2.400746e-06 3.1044092e-06 -9.4123845e-07
1.0495106e-06 2.387027e-06 -1.021997e-06 -1.2874316e-06 1.961634e-06 4.589324e-06 3.1204536e-07 5.394146e-06
2.6156872e-06 3.629923e-06 -1.5455664e-06 -1.4016405e-06 1.6895261e-06 1.8373975e-06 3.3001304e-06 2.3174869e-06
00000000: c63f a4b6 e00c 27b4 3991 1d36 fb09 1536
00000010: 70eb aeb4 c4f4 d9b5 faea fb35 861d c535
00000020: 447f 74b5 d86a 74b6 1132 5eb6 a88f 07b6
00000030: 1257 70b5 1a8b 2cb6 58a6 28b6 ee21 ea34
00000040: c189 87b6 2ef3 92b6 c055 2f36 acbc deb4
00000050: 343a e4b4 4456 d335 9413 6db6 0055 0834
00000060: 5e9a 88b6 e76f 3eb6 fc98 c4b4 4022 3db6
00000070: d56a d035 c029 6d33 ccd3 f834 d9ff 28b6
00000080: d332 b035 24b9 0f36 9b43 2eb6 d9af 8cb6
00000090: 9207 7db6 0b4c 94b5 94eb e4b5 ef9f 3736
000000a0: 009e 1532 f126 6836 2014 12b3 0c69 2ab6
000000b0: 17a3 e5b5 6616 3cb5 ebbb f835 b356 6db6
000000c0: 4fe2 3c35 d429 0136 7a0e 81b6 68cd de35
000000d0: 7751 6636 33b6 2136 370d 9db5 d23c 6235
000000e0: 3338 70b6 6dda dc35 c8b5 3836 dc87 ac35
000000f0: 2cc1 e435 eeed cdb6 6340 feb5 6ec5 2e36
00000100: ca47 c835 ec97 30b5 edf0 8db6 1dcd 1e36
00000110: e4e3 0636 b153 6036 a2ed 7fb6 c590 9bb6
00000120: a0aa 2136 c064 a934 0026 6636 7a58 6936
00000130: 362c 3a35 5e7f 1fb5 40b0 7e34 3c05 09b5
00000140: 8091 cbb5 66d4 2636 6471 1d36 8176 29b6
00000150: 1655 1636 de06 b535 3d2c 1836 522e 1bb5
00000160: 655a adb6 20e9 02b6 08a8 8836 7a1b 1bb5
00000170: 166e 0c36 dd3b 61b6 1022 2fb6 de19 abb5
00000180: 7303 d4b5 e5ec 53b6 40b6 2eb5 d9d1 e536
00000190: ea00 1db6 e6d4 a036 2eba 5d35 11a3 4436
000001a0: b880 9eb5 10ef 30b5 9094 09b6 d0f1 7b34
000001b0: bfc6 21b6 1233 8db6 aee1 40b6 1598 3436
000001c0: 502e 6734 1dc3 26b6 bb6d d4b5 b716 6736
000001d0: aed7 6536 88e5 7435 e09e f733 82da 5636
000001e0: a877 aeb5 b72a 87b5 90ad ff35 0cf0 1036
000001f0: 8b16 0136 9778 d135 da19 8e36 600c 6c35
00000200: be74 0fb6 e0b8 27b6 dc70 aab4 862e 3eb6
00000210: e88d 57b5 02c6 a9b4 a576 17b6 9c91 bcb5
00000220: e683 f3b5 6fc1 0236 30d2 2136 c7a9 9db5
00000230: 3273 3eb5 764c 3635 cc56 89b6 fcdb ceb4
00000240: 02d6 b535 f4c3 1736 7f56 2eb6 dd4c a8b6
00000250: 45ad f935 8055 5ab6 ee75 92b5 1a7e 70b6
00000260: ce3d 6cb6 9359 45b6 38d3 6a35 3a70 2a36
00000270: 701b 5ab5 3d96 ebb5 ac77 6836 f6cf 8235
00000280: c4cb 83b5 c8b8 5e35 802d 1bb6 38e0 36b6
00000290: e995 81b5 afa1 feb5 2e3c 3636 1f69 7f36
000002a0: ca57 0c36 cc40 6936 217b 2c36 8503 a6b6
000002b0: ac77 8934 32ce 6736 73df a835 e686 2ab6
000002c0: 3616 1035 9390 e0b5 c244 aa35 1cab d635
000002d0: 4e1b 1db6 4003 ffb2 b5ad 60b6 aa34 feb5
000002e0: 13a6 6036 b620 59b5 e9b0 5e36 04bd 5136
000002f0: a63a 9f35 3e9d 0236 0bb3 8235 e1b8 7c36
00000300: ee5b a635 dc13 28b6 813d 2235 21ee 0bb6
00000310: 4551 05b6 78ac 2c36 e3c8 efb5 3c46 97b5
00000320: adf9 3236 2a1d 47b6 6b92 1bb6 5241 2235
00000330: efd2 93b6 62bb b2b6 759e 92b5 0eb2 0136
00000340: c883 9a36 d8b2 1634 173b 21b6 ffdd c835
00000350: 8826 2835 f29e 9e36 a60b 0f36 8095 40b3
00000360: ec8f f234 b03f 3cb6 f4e2 0e35 ba8c 79b6
00000370: b80f 2936 c83a 7d35 a0e4 38b4 94b0 ee34
00000380: 1f4e 3f36 ec96 7835 0e49 49b5 6411 12b6
00000390: fcf8 6c35 bd70 8636 3a6d 10b6 2e97 c135
000003a0: 4bd1 9635 4854 4536 6275 35b6 ee28 41b6
000003b0: 427f 6e36 811c 21b6 5855 5036 6aa9 7cb5
000003c0: e9dc 8c35 d030 2036 8d2b 89b5 d0cb acb5
000003d0: 9ea4 0336 fefd 9936 3087 a734 5cff b436
000003e0: 2a89 2f36 9a99 7336 4271 cfb5 0020 bcb5
000003f0: adc3 e235 7f9c f635 cf77 5d36 1f86 1b36

sage.convs.0.lin_l.bias f4 [64]
-0.014043512 -0.21948966 -0.0520558 -0.01140831 -0.065114066 -0.104035474 -0.12028988 -0.014191392
-0.010306296 -0.094717145 -0.07852196 -0.114527285 -0.10397705 -0.032311246 -0.05074538 -0.0691746
-0.010884221 0.014400833 -0.19572598 -0.08848263 -0.0671099 -0.046617426 -0.055539794 -0.1395994
-0.06285215 -0.06412831 -0.028897865 -0.118164964 -0.10245372 -0.029055476 -0.06130878 -0.011884923
-0.080925286 -0.09452553 -0.09628091 -0.106323816 -0.30760124 -0.08133075 -0.22495584 -0.15821408
-0.051849708 -0.04130342 -0.0089613935 -0.10254582 -0.11191527 -0.08948202 -0.0318997 -0.045878515
-0.34242943 -0.06620123 -0.105668485 -0.040742222 -0.007689665 -0.09796694 -0.17176948 -0.121321686
-0.02051934 -0.025917111 -0.032203816 -0.09905388 -0.07993832 -0.07111609 -0.06881761 -5.7478384e-05
00000000: c216 66bc e6c1 60be 7638 55bd ece9 3abc
00000010: 865a 85bd 8d10 d5bd 8a5a f6bd 0383 68bc
00000020: bddb 28bc 10fb c1bd 1fd0 a0bd 488d eabd
00000030: ebf1 d4bd cc58 04bd 63da 4fbd 6aab 8dbd
00000040: bb53 32bc 79f1 6b3c 646c 48be 6236 b5bd
00000050: ea70 89bd eaf1 3ebd b27d 63bd 25f3 0ebe
00000060: a1b8 80bd b455 83bd 37bb ecbc 7900 f2bd
00000070: 42d3 d1bd c005 eebc ea1e 7bbd fbb8 42bc
00000080: 28bc a5bd 9a96 c1bd ed2e c5bd 4dc0 d9bd
00000090: e97d 9dbe bc90 a6bd d35a 66be df02 22be
000000a0: 5c60 54bd c62d 29bd cfd2 12bc 8b03 d2bd
000000b0: d533 e5bd 5942 b7bd 43a9 02bd 1ceb 3bbd
000000c0: e952 afbe 8394 87bd b868 d8bd 51e1 26bd
000000d0: 96f9 fbbb e4a2 c8bd 57e4 2fbe 8177 f8bd
000000e0: 2d18 a8bc 1f50 d4bc 26e8 03bd c3dc cabd
000000f0: b4b6 a3bd 50a5 91bd 3ff0 8cbd f214 71b8

sage.convs.0.lin_r.weight f4 [64, 384]
5.4161455e-06 -7.5871935e-06 -1.7021623e-06 4.0798714e-06 -6.1660744e-06 3.4104594e-06 1.5282826e-06 -3.5997202e-06
1.5674041e-06 -5.297054e-06 3.1610566e-06 -2.3142582e-06 -3.4584336e-06 -1.2015986e-06 3.4468353e-06 2.37735e-06
9.176329e-06 6.59109e-06 3.6510348e-06 1.3698195e-06 -1.4011016e-06 -3.7685836e-06 3.1293378e-06 -3.179923e-06
-7.0219976e-06 2.7616495e-06 -4.8119045e-06 7.4604884e-07 2.3999235e-07 9.77455e-07 -6.1203104e-06 -2.607782e-06
1.4976869e-06 3.146585e-06 5.962751e-06 2.6332395e-06 5.677782e-06 -4.105594e-06 -2.7616475e-06 -1.5713965e-07
-2.6602934e-06 8.6942e-07 -5.331698e-07 4.7834155e-06 -5.411116e-06 3.0646581e-06 2.3666835e-06 3.5416892e-06
-1.7026629e-06 -1.4123926e-06 2.9055823e-06 -2.1638452e-06 6.0751613e-06 4.571796e-06 -3.1934537e-06 -1.1476574e-06
3.6648048e-06 -3.3447893e-06 -1.4260445e-07 -1.1468139e-06 -2.0832358e-06 4.175976e-06 -1.3439504e-06 2.0857876e-06
-6.68511e-07 -2.410563e-06 6.706409e-06 6.123859e-06 7.7898824e-07 -5.5537994e-06 1.833416e-06 -8.185429e-06
-9.355117e-06 8.220517e-06 7.5997445e-07 5.851076e-06 -2.3972284e-06 4.690732e-06 3.5011494e-06 8.513218e-06
-7.2981453e-07 -1.6944663e-06 4.2871734e-06 3.5762546e-06 -9.241239e-06 -5.5155992e-06 -3.7904294e-07 1.224833e-06
7.548381e-06 -1.02455374e-07 4.0910436e-07 1.2135231e-06 -2.0629182e-06 1.8064708e-06 1.7763269e-06 -1.7154713e-06
4.6795885e-06 -1.8698436e-06 3.8640105e-06 -5.1674174e-06 3.0388603e-06 -6.4130995e-07 3.84664e-06 -2.0199473e-06
4.1357016e-06 -1.5414321e-06 1.9282747e-06 6.366071e-06 -1.7176193e-06 -4.8310053e-06 4.213606e-06 1.2597862e-06
1.5341071e-06 -1.7665727e-06 -2.2426004e-06 4.7443887e-06 9.484397e-07 -2.115733e-06 -1.7022767e-06 5.2798546e-06
-4.6320606e-06 -2.8789377e-06 3.8202493e-06 -3.0278995e-06 3.939732e-06 3.1978584e-07 -6.8795484e-06 1.0001138e-06
1.3266955e-06 2.5915865e-06 7.974828e-06 3.0047026e-06 3.7703855e-06 1.8649101e-06 -1.4127571e-06 3.046493e-06
1.386555e-06 4.3894424e-06 5.216314e-06 -2.277182e-06 6.0264506e-06 -7.322881e-06 -6.1198702e-06 3.6343874e-07
-6.698013e-06 -2.907462e-06 -1.0288128e-06 -3.996188e-06 5.5936134e-06 -6.9739463e-06 -3.1246127e-06 -5.5728815e-06
-4.876538e-06 -2.5103873e-08 -2.1781373e-06 6.657717e-06 6.591678e-07 8.234755e-07 8.117403e-06 2.005846e-06
-3.0055053e-06 3.3777524e-06 -4.6610658e-06 -2.987686e-06 2.6122045e-06 3.961403e-06 2.8910645e-06 5.2057912e-06
-1.5032413e-06 -4.781599e-06 -5.150909e-06 2.464833e-08 -1.0301342e-05 -7.3075266e-06 -4.3742293e-06 2.60839e-06
-2.4620006e-06 2.4021924e-06 -4.9269543e-06 2.2926952e-06 -4.4829476e-06 4.6291498e-06 5.4433863e-06 1.839901e-07
4.400046e-06 2.078535e-06 5.4269285e-06 -5.561363e-06 5.712437e-06 -2.0072764e-06 -1.1317283e-06 5.0331964e-06
3.0265658e-06 -5.5109326e-06 -1.5278582e-06 1.7570565e-06 -9.3715937e-07 2.911915e-06 9.257167e-07 -5.6261424e-06
4.5164677e-07 3.9877386e-06 -6.1504784e-06 8.5954775e-07 7.658341e-06 -4.2676456e-06 2.8636075e-06 4.3254054e-06
2.9410699e-06 3.4706418e-06 -2.7532678e-09 7.822904e-06 4.100411e-06 -1.0246563e-06 4.0796012e-06 8.6841355e-06
-6.682485e-06 6.034423e-06 -5.6606204e-06 -4.1658172e-06 4.1593985e-06 -1.9150411e-06 2.2583004e-07 -2.1714359e-06
-6.310434e-06 2.5265172e-06 1.8289504e-06 -4.395448e-06 -4.322364e-07 6.562682e-07 -5.276361e-06 -2.0112318e-06
-1.1395023e-06 -6.7708716e-06 -5.9537338e-06 -3.1769405e-06 -1.4129894e-06 5.076374e-06 2.5197442e-06 2.6120429e-06
-3.892245e-06 -1.1034317e-06 -3.850738e-06 -3.8684884e-06 -2.662661e-06 -2.174762e-06 -5.803393e-06 -6.2914687e-06
2.8586842e-06 -2.2408994e-07 3.24453e-06 -6.2145364e-06 2.0178886e-06 2.3601056e-06 -5.6127838e-06 6.1520393e-07
00000000: 56bc b536 7f95 feb6 da75 e4b5 d4e5 8836
00000010: 2de6 ceb6 3fdf 6436 641f cd35 b992 71b6
00000020: 985f d235 59bd b1b6 8a22 5436 a74e 1bb6
00000030: 7017 68b6 9d46 a1b5 2e50 6736 908a 1f36
00000040: 08f4 1937 0829 dd36 4d04 7536 a4da b735
00000050: 7c0d bcb5 c6e7 7cb6 9d01 5236 a966 55b6
00000060: 809e ebb6 c754 3936 f275 a1b6 1644 4835
00000070: 4cd8 8034 1931 8335 115d cdb6 5b01 2fb6
00000080: 2104 c935 eb29 5336 a413 c836 b6b6 3036
00000090: c783 be36 c9c2 89b6 be54 39b6 38ba 28b4
000000a0: 7e87 32b6 1662 6935 261f 0fb5 3a81 a036
000000b0: 2291 b5b6 6daa 4d36 50d3 1e36 c2ad 6d36
000000c0: 0d87 e4b5 7191 bdb5 86fd 4236 9436 11b6
000000d0: 3dd9 cb36 6e67 9936 1e4f 56b6 3509 9ab5
000000e0: def0 7536 0b77 60b6 d01e 19b4 3aec 99b5
000000f0: b8cd 0bb6 5c1f 8c36 c961 b4b5 8ff9 0b36
00000100: ba73 33b5 28c5 21b6 9d07 e136 8c7b cd36
00000110: aa1b 5135 c65a bab6 b213 f635 2654 09b7
00000120: ecf3 1cb7 daea 0937 0c01 4c35 5c54 c436
00000130: 12e0 20b6 1565 9d36 4af5 6a36 fed3 0e37
00000140: 79e8 43b5 6b6d e3b5 8ada 8f36 96ff 6f36
00000150: d20a 1bb7 a312 b9b6 447f cbb4 f164 a435
00000160: 1948 fd36 7005 dcb3 e0a2 db34 56e0 a235
00000170: aa70 0ab6 dd75 f235 216a ee35 253f e6b5
00000180: 5c05 9d36 56f7 fab5 99a7 8136 c763 adb6
00000190: 39ef 4b36 7c26 2cb5 6312 8136 6e8e 07b6
000001a0: 68c5 8a36 34e3 ceb5 8267 0136 229c d536
000001b0: f388 e6b5 051a a2b6 9a62 8d36 ed15 a935
000001c0: 85e7 cd35 fa1a edb5 957f 16b6 fd31 9f36
000001d0: 4898 7e35 04fc 0db6 c879 e4b5 9b29 b136
000001e0: 196d 9bb6 c633 41b6 b12f 8036 eb32 4bb6
000001f0: 0a32 8436 08af ab34 dfd6 e6b6 a63b 8635
00000200: e910 b235 1eeb 2d36 a0cb 0537 66a4 4936
00000210: bb06 7d36 d34d fa35 f79d bdb5 5a72 4c36
00000220: ab19 ba35 0649 9336 cc07 af36 b0d1 18b6
00000230: d136 ca36 12b7 f5b6 4959 cdb6 a41e c334
00000240: 7ebf e0b6 d11d 43b6 bd15 8ab5 fe16 86b6
00000250: c6b0 bb36 be01 eab6 70b0 51b6 b0fe bab6
00000260: 24a1 a3b6 00a4 d7b2 1d2c 12b6 5b65 df36
00000270: abf1 3035 ce0c 5d35 fb2f 0837 2c9c 0636
00000280: 30b2 49b6 58ad 6236 4066 9cb6 0e80 48b6
00000290: 554d 2f36 31ec 8436 1c04 4236 68ad ae36
000002a0: fac2 c9b5 9f71 a0b6 f9d5 acb6 40ba d332
000002b0: edd3 2cb7 2d33 f5b6 58c6 92b6 cd0b 2f36
000002c0: d938 25b6 5a35 2136 3752 a5b6 34dc 1936
000002d0: 3a6c 96b6 1854 9b36 55a6 b636 d08e 4534
000002e0: 1ba4 9336 f67c 0b36 f618 b636 bf9b bab6
000002f0: 76ad bf36 bfb4 06b6 e3e5 97b5 d4e2 a836
00000300: 011c 4b36 8dea b8b6 cf10 cdb5 00d4 eb35
00000310: 1a91 7bb5 526a 4336 c47e 7835 32c8 bcb6
00000320: dc79 f234 6ace 8536 3560 ceb6 acbb 6635
00000330: 537c 0037 cc32 8fb6 672c 4036 f322 9136
00000340: 325f 4536 2ce9 6836 0034 3db1 1e3f 0337
00000350: 4396 8936 ec86 89b5 82e3 8836 14b2 1137
00000360: 1c3a e0b6 4d7b ca36 5cf0 bdb6 19c8 8bb6
00000370: f690 8b36 2884 00b6 b07b 7234 fcb8 11b6
00000380: 37be d3b6 3c8d 2936 427a f535 9c7c 93b6
00000390: 1e0e e8b4 682a 3035 990b b1b6 b3f8 06b6
000003a0: 00f1 98b5 5831 e3b6 2fc6 c7b6 6c33 55b6
000003b0: f2a5 bdb5 b855 aa36 e018 2936 8e4a 2f36
000003c0: 219a 82b6 a019 94b5 9635 81b6 10ce 81b6
000003d0: 2bb0 32b6 20f2 11b6 c4ba c2b6 4e1b d3b6
000003e0: d2d7 3f36 609d 70b4 9abc 5936 7686 d0b6
000003f0: 106b 0736 4e62 1e36 7255 bcb6 7e24 2535

sage.convs.1.lin_l.weight f4 [64, 64]
-1.5760023e-06 5.9090216e-06 -2.7880765e-06 3.903746e-06 -0.036600213 -4.9951495e-07 -0.012144878 5.118818e-07
2.0690386e-06 -0.025080383 -0.15782881 -0.07806497 -0.14692031 1.0894131e-06 -0.08012227 -0.17088324
5.0114363e-07 -0.17766179 1.840973e-06 -0.011034132 -0.10231929 -0.020430733 -0.053459436 2.9808268e-06
-0.0910178 -0.11919693 -0.06553755 -0.04571415 -0.061510608 -4.3288114e-06 -0.19138068 1.2464468e-06
-2.5158863e-07 8.093877e-06 -3.1062543e-06 -9.386782e-07 3.5423568e-06 -0.11840202 -2.0756665e-06 2.0840146e-06
-3.6960168e-06 1.7135312e-07 -3.7839914e-07 -1.4308266e-06 -0.020766478 -0.0059299595 -0.006701932 0.026095366
1.3517423e-06 -0.14618927 -0.13714498 -0.037845828 -3.3846131e-06 -0.008130619 -1.3702803e-06 -0.07042427
-0.17358431 1.7986365e-06 2.8782629e-06 -0.16462903 -0.04127574 -0.137684 -2.932696e-06 -1.6697963e-06
-5.7360908e-06 -0.13525864 -7.397755e-07 -6.0987895e-07 -0.016682034 3.848243e-06 0.0058456687 3.0872416e-06
2.583589e-06 -0.027005423 0.02840418 -0.09723007 -0.14100173 4.289428e-06 -0.043563787 -0.1682268
-5.0645513e-06 -0.28342608 -6.3314104e-07 -0.113014676 -0.14547072 -0.11855179 -0.12474414 -0.062751904
-0.19116424 -0.09382221 -0.16407274 -0.17410442 -0.050184138 2.3777047e-06 -0.11324397 -0.1407895
-2.5530528e-06 1.2478646e-05 0.28659895 0.14183892 -0.14839381 -0.072514795 0.15394025 0.07402771
-4.8884453e-06 4.5663223e-06 7.7899244e-07 -7.771862e-06 -0.11646402 -0.006647126 -0.39081505 -0.09055871
0.015260271 0.012541946 -0.12157926 -0.016089644 4.4902886e-06 -0.13944739 0.015142673 -0.09243923
-0.08590744 7.10528e-06 -1.994727e-06 -0.15010558 -0.07895434 -0.021383652 -1.300709e-05 6.7084216e-06
4.778403e-06 1.8620563e-07 1.2878463e-06 3.2080106e-07 -6.112866e-07 -1.974819e-06 9.808706e-07 -4.992411e-06
4.734863e-06 1.7458822e-06 1.1131833e-06 5.07182e-07 -4.778439e-06 -2.1226774e-06 1.2713042e-07 4.36737e-06
-4.2796737e-06 -2.6640855e-05 2.205899e-06 1.8638539e-06 2.7818746e-06 -9.3441633e-07 -5.5568253e-06 -3.3767592e-06
3.912097e-06 8.039858e-07 1.6991888e-05 2.795707e-06 -4.5519118e-07 3.4541904e-07 7.353102e-07 -5.5402734e-07
-4.8037296e-06 9.549943e-07 -2.8546524e-06 5.4973766e-06 -7.3165273e-07 -2.3988637e-06 -4.8747796e-07 -1.445885e-06
-8.5845477e-07 -3.009798e-06 -1.347471e-07 -3.0871547e-07 -1.683573e-06 -9.917778e-07 1.6973252e-07 -2.6034286e-06
5.697547e-06 1.4787975e-07 7.0794573e-07 1.2537557e-06 1.9756169e-07 -1.9369998e-06 -1.178393e-06 -9.589442e-07
-8.0041787e-07 -1.3905719e-07 -6.956587e-07 -1.312342e-06 -2.5495976e-06 -2.9376656e-06 -1.1186978e-06 -1.2306548e-06
-2.3345328e-06 4.058561e-06 8.324867e-06 5.3056065e-06 0.011550808 -3.9753736e-06 -0.026155325 1.0110625e-05
5.628325e-06 -0.044988472 -0.00904926 -0.14193356 -0.05885652 2.2080376e-06 -0.13469975 0.0015814067
3.6590332e-06 -0.07108725 -1.4604359e-06 0.017036054 0.003984805 -0.122961305 -0.1575521 -1.4699976e-06
-0.0765274 0.026385877 -0.09668548 -0.11544676 -0.029508973 3.542206e-06 -0.20335239 -4.0142177e-06
8.796067e-06 9.802194e-06 -2.0488942e-06 4.2189686e-06 -8.5019315e-07 -0.104013465 -4.0670648e-06 -5.28371e-06
-4.5516595e-06 9.503389e-06 -7.715056e-06 1.0467216e-05 -0.19522604 -0.06341217 -0.05373004 0.02955003
7.739528e-07 -0.11896629 -0.15876888 -0.007976578 6.242399e-06 -0.09668612 -2.4411704e-06 -0.029257318
-0.07063166 -7.4843633e-06 4.146807e-06 0.00026971655 -0.061698843 0.031409785 4.3122645e-06 2.3053904e-06
00000000: 0787 d3b5 1c46 c636 ca1a 3bb6 ecfc 8236
00000010: 1bea 15bd 6816 06b5 4ffb 46bc 4068 0935
00000020: d0d9 0a36 6075 cdbc e09d 21be 87e0 9fbd
00000030: 4772 16be f337 9235 2517 a4bd 04fc 2ebe
00000040: 5486 0635 f9ec 35be 5a17 f735 81c8 34bc
00000050: c78c d1bd 5a5e a7bc 48f8 5abd 370a 4836
00000060: 8a67 babd 851d f4bd 8d38 86bd c33e 3bbd
00000070: 8cf2 7bbd 3540 91b6 4cf9 43be 964b a735
00000080: 1412 87b4 f0ca 0737 0b75 50b6 7af9 7bb5
00000090: 3ab9 6d36 c27c f2bd ae4b 0bb6 19db 0b36
000000a0: 1609 78b6 30fd 3734 c826 cbb4 d40a c0b5
000000b0: 761e aabc 1b50 c2bb e19b dbbb f3c5 d53c
000000c0: 836d b535 a4b2 15be bc6f 0cbe 3a04 1bbd
000000d0: 3623 63b6 4a36 05bc 79ea b7b5 9a3a 90bd
000000e0: 16c0 31be ae68 f135 2e28 4136 8394 28be
000000f0: c010 29bd 09fd 0cbe 55cf 44b6 c41d e0b5
00000100: a578 c0b6 3e81 0abe fc94 46b5 90b6 23b5
00000110: c3a8 88bc 2820 8136 068d bf3b 682e 4f36
00000120: b961 2d36 7a3a ddbc e2af e83c 8f20 c7bd
00000130: c262 10be e8ed 8f36 f16f 32bd a543 2cbe
00000140: 2af0 a9b6 391d 91be 1ff5 29b5 3d74 e7bd
00000150: 47f6 14be 48cb f2bd db79 ffbd 1284 80bd
00000160: 8fc0 43be dc25 c0bd af02 28be 6e48 32be
00000170: e28d 4dbd a890 1f36 74ec e7bd 1f2b 10be
00000180: 1d55 2bb6 605b 5137 19bd 923e 393e 113e
00000190: 8cf4 17be a382 94bd 83a2 1d3e d79b 973d
000001a0: 6d07 a4b6 6938 9936 f41b 5135 e563 02b7
000001b0: b084 eebd 22d0 d9bb e918 c8be d876 b9bd
000001c0: 3706 7a3c bc7c 4d3c 8cfe f8bd 6ece 83bc
000001d0: 49ab 9636 4ccb 0ebe f918 783c c750 bdbd
000001e0: 3df0 afbd e469 ee36 26dd 05b6 47b5 19be
000001f0: d0b2 a1bd c52c afbc 0739 5ab7 e718 e136
00000200: 2b56 a036 d0ef 4734 10da ac35 903a ac34
00000210: 4c17 24b5 2287 04b6 75a6 8335 7c84 a7b6
00000220: 2ae0 9e36 0e54 ea35 b068 9535 4825 0835
00000230: 7a56 a0b6 5273 0eb6 5881 0834 6c8b 9236
00000240: 1e9a 8fb6 cd7a dfb7 0e09 1436 8829 fa35
00000250: 3eb0 3a36 9ad4 7ab5 c474 bab6 489c 62b6
00000260: a844 8336 7cd1 5735 cd89 8e37 e19d 3b36
00000270: 0061 f4b4 0872 b934 2262 4535 78b8 14b5
00000280: b92f a1b6 5b2d 8035 8e92 3fb6 1b76 b836
00000290: cb66 44b5 2afc 20b6 3bdb 02b5 3b10 c2b5
000002a0: 9070 66b5 f0fb 49b6 00af 10b4 88bd a5b4
000002b0: 21f7 e1b5 3a1d 85b5 b83f 3634 90b6 2eb6
000002c0: 8e2d bf36 e0c8 1e34 a909 3e35 b846 a835
000002d0: 5821 5434 67fd 01b6 4629 9eb5 12b5 80b5
000002e0: 4cdc 56b5 c04f 15b4 4dbd 3ab5 ba23 b0b5
000002f0: c119 2bb6 b624 45b6 2a26 96b5 fa2c a5b5
00000300: f8aa 1cb6 c62e 8836 08ab 0b37 d006 b236
00000310: 9a3f 3d3c 3364 85b6 b143 d6bc cea0 2937
00000320: f2da bc36 d545 38bd 5943 14bc 0857 11be
00000330: 8913 71bd cc2d 1436 bbee 09be 3447 cf3a
00000340: b68d 7536 3196 91bd 3204 c4b5 328f 8b3c
00000350: f892 823b 23d3 fbbd 5655 21be bc4c c5b5
00000360: 66ba 9cbd 3227 d83c 0903 c6bd 5a6f ecbd
00000370: cdbc f1bc a3b6 6d36 9c3b 50be deb1 86b6
00000380: d292 1337 1a74 2437 bc7f 09b6 aa90 8d36
00000390: d438 64b5 0305 d5bd d277 88b6 b94a b1b6
000003a0: 75ba 98b6 bf70 1f37 ea6f 01b7 5a9c 2f37
000003b0: 56e9 47be 3dde 81bd 0814 5cbd e812 f23c
000003c0: a2c1 4f35 99a4 f3bd 4f94 22be 31b0 02bc
000003d0: cd75 d136 5f03 c6bd fdd2 23b6 0bad efbc
000003e0: 55a7 90bd 3122 fbb6 cd24 8b36 be68 8d39
000003f0: edb7 7cbd 8ca7 003d 12b2 9036 4eb6 1a36

sage.convs.1.lin_l.bias f4 [64]
-0.0752632 -0.069678 -0.008585767 -0.0764357 -0.08564071 -0.12132331 -0.12479199 -0.060655974
-0.051378906 -0.0357191 -0.032799434 -0.05913794 -0.1409302 -0.026122259 -0.08675045 -0.03343933
-0.117103994 -0.04823278 0.10860217 -0.044773515 -0.011172907 -0.064263836 -0.16574626 -0.17439067
-0.032872565 0.1447694 -0.074255094 -0.17884965 -0.1106519 0.054105915 -0.025875118 -0.051434524
-0.050050903 -0.08647849 -0.1778034 -0.001434538 -0.063491434 -0.06396721 0.06355323 -0.023355
-0.07501925 0.05097226 -0.23103017 -0.094107024 -0.14145884 0.0018759002 -0.11095256 -0.046152715
-0.07058476 -0.09239936 -0.06627402 0.096573144 -0.2469403 -0.06389001 -0.049172655 -0.0969251
-0.07397414 -0.10189268 -0.13344231 0.060359005 -0.05535606 0.22575969 -0.034867115 -0.0026832102
00000000: 9823 9abd 57b3 8ebd 51ab 0cbc 528a 9cbd
00000010: 6664 afbd 5b78 f8bd f192 ffbd 6672 78bd
00000020: b072 52bd 314e 12bd b358 06bd a03a 72bd
00000030: 0250 10be 59fe d5bc 38aa b1bd aef7 08bd
00000040: 38d4 efbd bc8f 45bd d16a de3d 6f64 37bd
00000050: 920e 37bc c29c 83bd 63b9 29be 7893 32be
00000060: 62a5 06bd 6e3e 143e 0e13 98bd 5d24 37be
00000070: 779d e2bd 2a9e 5d3d 0ef8 d3bc 02ad 52bd
00000080: 2d02 4dbd a21b b1bd 1812 36be 1c07 bcba
00000090: cc07 82bd 3e01 83bd 3228 823d fc52 bfbc
000000a0: b1a3 99bd 4ac8 503d 2c93 6cbe 2fbb c0bd
000000b0: 96da 10be c4e0 f53a 193b e3bd a10a 3dbd
000000c0: be8e 90bd e03b bdbd acba 87bd 24c8 c53d
000000d0: ebdd 7cbe c4d8 82bd 4469 49bd ab80 c6bd
000000e0: c17f 97bd 1cad d0bd 1aa5 08be 013b 773d
000000f0: 09bd 62bd 8c2d 673e d2d0 0ebd ccd8 2fbb

sage.convs.1.lin_r.weight f4 [64, 64]
-3.0020674e-06 -3.6670883e-06 3.6044237e-06 1.5091945e-06 -0.07428309 -8.192809e-06 -0.013878186 4.6687564e-06
-2.5196762e-06 -0.06018829 -0.11864874 -0.14367637 -0.14931718 -1.1363512e-06 -0.14651474 -0.025833802
-8.8357103e-07 -0.10514519 -8.825316e-08 -0.17190516 -0.0066412203 -0.09778224 0.0057061287 3.5984724e-06
-0.070921496 -0.17693006 -0.14339478 -0.11598772 -0.16753286 2.4195829e-06 -0.1301847 -1.0177149e-06
-1.5674467e-06 -8.9455825e-06 -3.479025e-06 2.3901346e-06 -2.9140647e-06 -0.02146489 2.2102631e-07 -1.0411372e-06
-7.2510625e-06 6.1034107e-06 -3.6929966e-06 1.0865577e-05 -0.09526953 -0.020895433 -0.04861479 -0.05076442
1.7111892e-06 -0.05141462 -0.06635837 -0.1102716 6.401967e-07 -0.030210901 -4.8645506e-07 -0.19173251
-0.084067814 -4.1221533e-06 6.98769e-07 -0.06647874 -0.19558133 -0.1750873 2.4380208e-06 -1.2007026e-06
-2.8333313e-06 -0.15335253 -8.057146e-06 -4.857946e-06 -0.105932795 -5.7753923e-06 -0.11598455 1.4326133e-05
-4.344726e-06 -0.07655441 -0.13417932 -0.1728417 -0.2015346 -5.3407875e-06 -0.036189396 -0.09295399
-4.954462e-06 -0.10206116 -5.9570525e-06 -0.012015466 -0.15092255 -0.22819419 -0.120750226 -0.08496459
-0.092866406 -0.055824053 -0.10847077 -0.048646525 -0.1304085 7.515941e-06 -0.07807957 -0.042158317
2.884077e-06 7.165163e-06 0.20832574 0.10310038 -0.14610173 -0.09471286 0.14818703 0.089606054
6.6122516e-07 -2.456725e-06 4.195078e-06 -3.4798657e-05 -0.1573656 -0.041063137 -0.057943083 -0.16368373
-0.0031504587 -0.016315728 -0.124911815 -0.13805059 1.8921994e-06 -0.031956967 0.054643862 -0.060258046
-0.20575204 -1.0911109e-05 -8.880909e-06 -0.09469876 -0.1539103 -0.0520012 -4.6617606e-06 -3.3724514e-06
5.835979e-06 1.0999013e-06 -4.207456e-06 -3.4049635e-06 7.810355e-07 2.8764298e-06 3.0058226e-07 -1.3728284e-06
3.2666412e-07 -3.608271e-06 -6.725388e-07 7.611403e-07 -1.6430106e-06 1.4991645e-06 -3.6905894e-06 -1.0200491e-06
6.9152736e-07 -0.00080931274 -4.0186123e-06 -3.4780637e-06 -1.4405092e-06 -2.0169407e-06 1.1370464e-06 3.9168403e-06
-2.4115777e-06 3.0558676e-06 -0.00023007543 -3.2973462e-06 -1.5204995e-06 -5.4568335e-07 -1.4329157e-07 -4.0653727e-06
2.5130596e-06 1.0329559e-06 4.2928204e-06 4.5215406e-06 4.533502e-06 -4.139844e-06 1.6821845e-06 -5.358864e-06
3.0478582e-06 -1.401384e-06 2.90065e-06 1.3306501e-06 7.0592046e-07 3.0312463e-06 -1.1943918e-06 -3.9431243e-06
-5.753492e-06 -7.666634e-07 -1.9905426e-06 -5.7179244e-07 -9.946676e-07 5.457895e-07 5.5687533e-06 -1.993172e-06
8.272908e-05 3.41759e-06 -6.396888e-06 1.5058199e-06 5.824708e-06 1.4818847e-06 3.451424e-06 3.5761175e-07
2.6547614e-06 -2.498507e-06 2.1752212e-06 -1.0913294e-06 -0.035109807 -1.0536384e-06 0.011385728 -9.984885e-06
-1.6153188e-06 -0.049351733 -0.1779436 -0.12809466 -0.1440273 -8.98218e-06 -0.13985966 -0.027531344
-5.818522e-07 -0.038706027 -7.156968e-06 0.0062303366 -0.15338397 -0.20370686 -0.02333798 4.5193615e-06
-0.098216906 -0.003653818 -0.1626881 -0.20351806 -0.055336203 6.34058e-06 -0.008498043 -9.463829e-06
-1.1012518e-05 2.0241047e-05 1.6288225e-06 -1.2567421e-05 4.4348253e-06 -0.17339903 -6.833236e-06 5.036915e-06
1.1400069e-06 -3.7606904e-05 1.3740335e-05 5.6085464e-05 -0.056923885 -0.044696853 -0.08569488 -0.19602983
8.282752e-06 -0.049624 -0.10390782 -0.0727813 -1.1295509e-05 -0.14630489 -3.4976529e-06 -0.20545968
-0.039680213 1.3219585e-05 5.6801714e-06 -0.10311997 -0.07437168 -0.1223329 -5.9461263e-06 -4.355956e-06
00000000: 2077 49b6 1918 76b6 87e3 7136 878f ca35
00000010: bc21 98bd d973 09b7 5561 63bc 50a8 9c36
00000020: b517 29b6 ff87 76bd 1cfe f2bd e61f 13be
00000030: 9ae6 18be bb84 98b5 f607 16be 69a1 d3bc
00000040: 8a2e 6db5 5d56 d7bd b085 bdb3 e807 30be
00000050: 989e d9bb 0e42 c8bd 7afa ba3b 497d 7136
00000060: 4a3f 91bd 272d 35be 15d6 12be f88a edbd
00000070: bc8d 2bbe 1e60 2236 234f 05be 6b98 88b5
00000080: 0f61 d2b5 fc14 16b7 3279 69b6 3366 2036
00000090: 408f 43b6 23d7 afbc 4053 6d34 34bd 8bb5
000000a0: 274e f3b6 e6cb cc36 33d5 77b6 4c4b 3637
000000b0: ac1c c3bd e62c abbc 4d20 47bd 5aee 4fbd
000000c0: 03ac e535 2398 52bd e6e6 87bd 14d6 e1bd
000000d0: fbd9 2b35 da7c f7bc f094 02b5 8755 44be
000000e0: bf2b acbd 0751 8ab6 0a93 3b35 0126 88bd
000000f0: 7946 48be 164a 33be e19c 2336 d427 a1b5
00000100: 4324 3eb6 7208 1dbe 2e2d 07b7 7001 a3b6
00000110: 4bf3 d8bd 3eca c1b6 4f89 edbd 465a 7037
00000120: eac8 91b6 8fc8 9cbd 4e66 09be 6afd 30be
00000130: 165f 4ebe 0435 b3b6 553b 14bd a95e bebd
00000140: 813e a6b6 7105 d1bd b1e2 c7b6 84dc 44bc
00000150: 718b 1abe bdab 69be e54b f7bd ea01 aebd
00000160: be30 bebd c3a7 64bd ec25 debd 9441 47bd
00000170: ce89 05be 7131 fc36 2ee8 9fbd 33ae 2cbd
00000180: 118c 4136 486c f036 5853 553e 4b26 d33d
00000190: b19b 15be d1f8 c1bd 57be 173e 6183 b73d
000001a0: 0c7f 3135 37de 24b6 72c3 8c36 c6f4 11b8
000001b0: 7324 21be d231 28bd ba55 6dbd b59c 27be
000001c0: ed77 4ebb 90a8 85bc c4d1 ffbd 225d 0dbe
000001d0: 7af7 fd35 4fe5 02bd 3ed2 5f3d 24d1 76bd
000001e0: aab0 52be db0e 37b7 37ff 14b7 6cf1 c1bd
000001f0: a99a 1dbe 36ff 54bd 386c 9cb6 4652 62b6
00000200: aed2 c336 52a0 9335 c62d 8db6 d480 64b6
00000210: 5aa8 5135 b008 4136 b65f a134 0642 b8b5
00000220: 6060 af34 a025 72b6 8488 34b5 2a51 4c35
00000230: 6a85 dcb5 e636 c935 d8ab 77b6 9fe8 88b5
00000240: 66a1 3935 0f28 54ba 9ed7 86b6 ae68 69b6
00000250: 8557 c1b5 c75a 07b6 9e9c 9835 676d 8336
00000260: 97d6 21b6 6813 4d36 6740 71b9 fa47 5db6
00000270: f713 ccb5 137b 12b5 b0db 19b4 4969 88b6
00000280: 09a6 2836 18a4 8a35 0c0b 9036 bdb7 9736
00000290: 7c1e 9836 fde8 8ab6 6bc7 e135 4bd0 b3b6
000002a0: ce89 4c36 3017 bcb5 caa8 4236 ca98 b235
000002b0: 7c7e 3d35 6a6c 4b36 fd4e a0b5 2e4f 84b6
000002c0: 1f0e c1b6 b5cc 4db5 4395 05b6 477d 19b5
000002d0: 8580 85b5 5e82 1235 3adb ba36 6fc2 05b6
000002e0: d67e ad38 c059 6536 d9a4 d6b6 941b ca35
000002f0: dc71 c336 2ce5 c635 039f 6736 c9fd bf34
00000300: 7428 3236 06ac 27b6 04fa 1136 cb79 92b5
00000310: 4dcf 0fbd bd6a 8db5 348b 3a3c c184 27b7
00000320: eecd d8b5 0b25 4abd d936 36be 3f2b 03be
00000330: e47b 13be 2bb2 16b7 5f37 0fbe 6a89 e1bc
00000340: 9430 1cb5 368a 1ebd e325 f0b6 da27 cc3b
00000350: b010 1dbe 8898 50be 4b2f bfbc 05a5 9736
00000360: f225 c9bd e574 6fbb b697 26be 0a67 50be
00000370: 37a8 62bd 2bc1 d436 603b 0bbc d6c6 1eb7
00000380: 68c2 38b7 51cb a937 ea9d da35 aad8 52b7
00000390: dcce 9436 848f 31be 0d49 e5b6 c502 a936
000003a0: 5702 9935 1bbc 1db8 4a86 6637 4f3d 6b38
000003b0: 0529 69bd 0c14 37bd cc80 afbd 0bbc 48be
000003c0: 26f6 0a37 8942 4bbd a0cd d4bd 5d0e 95bd
000003d0: d781 3db7 f3d0 15be 38b9 6ab6 0664 52be
000003e0: b887 22bd afc9 5d37 4d98 be36 9030 d3bd
000003f0: 2e50 98bd ac89 fabd d684 c7b6 6129 92b6

sage.convs.2.lin_l.weight f4 [64, 64]
0.065607406 0.14777395 2.0289167e-06 0.11768618 0.037203677 2.0971693e-05 0.01289853 -3.1680884e-07
0.12838838 0.147222 0.10403073 0.047505327 0.019634252 0.06753251 -0.00033416666 0.07781472
-2.2792005e-05 0.05352975 -0.1435851 0.046968255 0.15263636 0.029565625 0.024393262 0.050962526
0.05955372 -0.079977825 1.9565157e-06 0.056720976 0.00034801854 0.014118046 0.15913627 0.1486356
0.093794376 -2.4554017e-06 0.0006882802 -4.6210075e-06 -2.9888213e-06 0.015436824 -0.07011075 0.010810772
0.052048888 0.025801966 0.0034554843 0.106107056 -6.4971205e-06 0.112484604 0.028499646 -4.5331685e-06
-1.9336776e-05 0.0064955554 0.045661736 0.05980786 0.2109644 0.012425917 0.023677284 0.03061998
0.08786129 3.7247505e-06 -2.5012175e-06 0.01925466 -0.004534983 0.08700974 -5.621596e-07 -4.256475e-06
0.035469666 0.053041507 7.787329e-06 0.14464079 -0.008694396 -8.169327e-06 0.050518006 9.575292e-07
0.12965241 -0.015641348 0.042702656 0.05464591 0.013859387 0.026575211 1.27677995e-05 0.046219535
-0.00011472351 0.12809709 -0.052476678 -0.002686246 0.096020445 0.0017972136 -0.0266305 0.020297747
0.015526753 0.0146836005 -4.0024347e-06 0.021429328 -3.286463e-05 0.049599666 0.026465587 0.06664376
0.025351528 -6.4314413e-06 1.2508627e-06 -1.5136068e-06 7.1731224e-06 0.13280602 0.00992805 0.10751566
0.056468934 0.03575675 0.004706944 0.12153154 -6.8500194e-06 0.08983514 0.00623299 -7.8635785e-06
-7.975045e-07 0.045807313 0.05585367 0.03124643 0.10621686 0.001000229 0.014505341 0.019186845
0.038935944 -5.7118564e-06 -5.853339e-06 0.060832784 0.07355683 -0.005143732 -1.5903539e-05 -4.895403e-07
-0.0026598594 -0.09548075 -2.1669305e-06 -0.08557775 -0.04483376 2.0509553e-05 -0.005369383 9.773885e-06
-0.0025473435 -0.14773782 -0.081600435 -0.07091569 -0.005015908 -0.00512255 -3.4521887e-05 -0.017061442
5.6654135e-05 -0.006383428 0.0679007 -0.08308877 -0.096576564 0.07000135 -0.029315498 -0.025647959
-0.05885419 -0.20104699 5.10295e-06 -0.0074027716 -2.8554636e-05 -0.0672965 -0.04525233 -0.08047038
-0.039676473 8.2930615e-07 0.00014230632 6.088295e-07 4.0396426e-06 -0.066479065 -0.11847442 -0.053582724
-0.15918675 -0.04044074 0.0063080965 0.021417798 -4.309011e-06 -0.16543558 -0.0060308888 -3.930754e-06
1.40106495e-05 -0.08003024 -0.032633413 0.07723088 0.06183267 -0.005266584 -0.13949676 -0.11393862
-0.08465727 -9.314837e-06 4.746045e-06 -0.035244286 -0.0047721826 0.08555626 -3.8671105e-06 3.2116307e-06
0.031860463 0.02116883 -7.48677e-06 0.15060587 -0.008861638 -9.170433e-06 0.02424828 -6.7257524e-06
-0.008615523 0.096901596 -0.017173672 0.06395116 0.0115216095 0.1276707 -3.25318e-05 -0.008589901
0.00011378134 0.13514325 0.017989388 0.121640965 0.102393776 -0.028066264 -0.037871383 0.042391088
0.034441896 0.023028078 4.1355327e-07 0.02884354 4.4351775e-05 0.06324139 0.06322565 0.057947345
-0.003405548 -1.0910308e-06 6.203886e-05 -2.0849063e-06 -2.0894017e-06 0.029896814 -0.025893535 -0.015329596
0.14893065 0.04556169 0.0016144528 0.044984832 3.778889e-06 0.0037855306 0.0069048395 5.17039e-06
-8.204292e-06 0.08891181 0.01464248 0.06672578 0.025733324 0.003642577 0.03747599 0.08392068
0.07230977 3.7104742e-06 -4.7868375e-06 -0.02071697 0.02861824 -0.015840678 -1.0833785e-05 5.281577e-07
00000000: 2d5d 863d 0e52 173e 8628 0836 7405 f13d
00000010: e262 183d 5eec af37 5b54 533c e015 aab4
00000020: 3e78 033e 5dc1 163e 100e d53d f294 423d
00000030: 03d8 a03c 7c4e 8a3d 1733 afb9 535d 9f3d
00000040: 7531 bfb7 0342 5b3d f907 13be c961 403d
00000050: b54c 1c3e 9c33 f23c 61d4 c73c 15be 503d
00000060: 9aee 733d 6acb a3bd af4c 0336 4154 683d
00000070: 4276 b639 604f 673c 9ef4 223e ee33 183e
00000080: 4417 c03d 7bc7 24b6 b46d 343a 270e 9bb6
00000090: 8f93 48b6 bcea 7c3c 3a96 8fbd aa1f 313c
000000a0: 3731 553d a55e d33c 6875 623b a84e d93d
000000b0: d701 dab6 545e e63d 1778 e93c 9f1b 98b6
000000c0: 6935 a2b7 abd8 d43b cd07 3b3d 16f9 743d
000000d0: 0d07 583e 1396 4b3c ddf6 c13c c1d6 fa3c
000000e0: 9ff0 b33d baf6 7936 97da 27b6 f3bb 9d3c
000000f0: 329a 94bb 2a32 b23d 50e7 16b5 d8d2 8eb6
00000100: a448 113d 0d42 593d 53a6 0237 b71c 143e
00000110: f172 0ebc fe0e 09b7 f8eb 4e3d 7484 8035
00000120: 9ac3 043e 4922 80bc fbe8 2e3d 64d4 5f3d
00000130: 7b12 633c 42b4 d93c 4835 5637 b250 3d3d
00000140: b797 f0b8 e22b 033e c9f1 56bd bb0b 30bb
00000150: 5ea6 c43d 7b90 eb3a 3528 dabc 7647 a63c
00000160: ec63 7e3c 7c93 703c a74c 86b6 8f8c af3c
00000170: 21d8 09b8 0529 4b3d 5cce d83c 867c 883d
00000180: 02ae cf3c a9cd d7b6 51e3 a735 2227 cbb5
00000190: a7b0 f036 4dfe 073e 43a9 223c 2c31 dc3d
000001a0: f84b 673d ab75 123d b53c 9a3b 87e5 f83d
000001b0: 38d9 e5b6 7cfb b73d 1c3e cc3b d0ed 03b7
000001c0: 1814 56b5 73a0 3b3d d1c6 643d 83f8 ff3c
000001d0: 3a88 d93d 1e1a 833a cfa7 6d3c bb2d 9d3c
000001e0: 4c7b 1f3d 79a8 bfb6 cd67 c4b6 cc2b 793d
000001f0: f7a4 963d c08c a8bb 9768 85b7 f468 03b5
00000200: 0951 2ebb 698b c3bd 956b 11b6 6343 afbd
00000210: 9ba3 37bd ee0b ac37 a6f1 afbb 84fa 2337
00000220: 55f1 26bb 9548 17be 211e a7bd 3f3c 91bd
00000230: 7c5c a4bb 10db a7bb 98cb 10b8 70c4 8bbc
00000240: ea9f 6d38 132c d1bb 860f 8b3d 722a aabd
00000250: efc9 c5bd de5c 8f3d 0e27 f0bc ab1b d2bc
00000260: 1711 71bd 43df 4dbe 023a ab36 f392 f2bb
00000270: 9d88 efb7 bfd2 89bd 825a 39bd a8cd a4bd
00000280: cc83 22bd 7c9d 5e35 1038 1539 726e 2335
00000290: 448c 8736 2d26 88bd b7a2 f2bd 8f79 5bbd
000002a0: da01 23be 30a5 25bd 26b4 ce3b 6174 af3c
000002b0: 1f96 90b6 f267 29be c39e c5bb ebe4 83b6
000002c0: 480f 6b37 e5e6 a3bd 9daa 05bd 392b 9e3d
000002d0: 4144 7d3d 4f93 acbb 3dd8 0ebe a758 e9bd
000002e0: ca60 adbd ec46 1cb7 3740 9f36 505c 10bd
000002f0: f85f 9cbb 1f38 af3d 3ac2 81b6 6587 5736
00000300: 1e80 023d 416a ad3c dd36 fbb6 6d38 1a3e
00000310: 6730 11bc b6da 19b7 54a4 c63c c6ad e1b6
00000320: 1f28 0dbc 5874 c63d cdaf 8cbc d3f8 823d
00000330: 22c5 3c3c 1cbc 023e c172 08b8 a8bc 0cbc
00000340: e49d ee38 fe62 0a3e 7b5e 933c e61e f93d
00000350: d4b3 d13d 39eb e5bc 061f 1bbd 47a2 2d3d
00000360: f212 0d3d 61a5 bc3c 5406 de34 4a49 ec3c
00000370: 5b06 3a38 b484 813d 737c 813d 325a 6d3d
00000380: 9d2f 5fbb 886f 92b5 dc1a 8238 6bea 0bb6
00000390: a637 0cb6 2aea f43c ae1e d4bc fc28 7bbc
000003a0: 4781 183e e59e 3a3d 0c9c d33a 0442 383d
000003b0: d298 7d36 aa16 783b fe41 e23b 507d ad36
000003c0: 2aa5 09b7 6517 b63d 03e7 6f3c 87a7 883d
000003d0: b1ce d23c 4db8 6e3b 6c80 193d 9bde ab3d
000003e0: 2517 943d 7601 7936 9f9e a0b6 a3b6 a9bc
000003f0: cd70 ea3c 4fc4 81bc c1c2 35b7 b9c6 0d35

sage.convs.2.lin_l.bias f4 [64]
0.12378123 0.06157309 -0.03975055 0.051965285 0.0005149569 -0.07936797 -0.09477475 0.0648858
0.06667376 -0.097273156 0.0041315635 -0.1075042 0.1143418 0.08802141 0.120212264 -0.04993255
-0.09870794 0.07017315 -0.03569261 -0.08001303 0.036130145 0.06422739 -0.0623569 0.13816488
0.03618731 0.093382634 0.09515565 0.05539447 0.07886991 -0.055175457 -0.088379994 -0.0035137013
0.0117760645 0.07650942 0.052709185 0.024264796 0.067988396 0.017570138 -0.013020675 0.05884537
0.0076851672 -0.04926959 0.12303432 0.12275762 -0.052109264 0.09255665 -0.07129644 -0.1152985
-0.08502673 -0.0043829936 0.053541265 0.045691915 -0.07784684 -0.023795707 -0.07304956 -0.025022749
-0.09177469 0.0656236 0.14074102 -0.07099883 -0.091296576 -0.06309673 -0.050744466 -0.09466904
00000000: 0381 fd3d 1034 7c3d 79d1 22bd 8dd9 543d
00000010: 2cfe 063a ad8b a2bd 4419 c2bd d9e2 843d
00000020: 418c 883d 2637 c7bd 1162 873b 292b dcbd
00000030: 092c ea3d 9244 b43d d931 f63d 1386 4cbd
00000040: 6327 cabd f1b6 8f3d 6a32 12bd dfdd a3bd
00000050: 34fd 133d a689 833d f369 7fbd 187b 0d3e
00000060: 2539 143d 653f bf3d f7e0 c23d 50e5 623d
00000070: 8c86 a13d a9ff 61bd 9200 b5bd 2046 66bb
00000080: 65f0 403c f9b0 9c3d 96e5 573d f7c6 c63c
00000090: 803d 8b3d 40ef 8f3c ab54 55bc d807 713d
000000a0: dbd3 fb3b e9ce 49bd 6bf9 fb3d 5968 fb3d
000000b0: 8670 55bd 578e bd3d de03 92bd 9f21 ecbd
000000c0: 7f22 aebd 379f 8fbb 164e 5b3d 7227 3b3d
000000d0: 2a6e 9fbd 37ef c2bc 029b 95bd 82fc ccbc
000000e0: 5ef4 bbbd aa65 863d 6a1e 103e d667 91bd
000000f0: b3f9 babd dc38 81bd 6ed9 4fbd d7e1 c1bd

sage.convs.2.lin_r.weight f4 [64, 64]
-0.014037083 0.19154926 2.8978234e-06 0.15634876 -0.009540099 0.0005961774 0.007847258 4.5263637e-06
-0.02233208 0.12656693 0.062111355 0.02268416 0.08080495 0.093770765 0.0019778989 0.011074351
-0.00021287198 0.11711763 -0.49204507 -0.01720913 0.006378955 0.14961731 0.020375924 0.028292535
0.1258546 0.030539675 -4.342543e-06 -0.0012201606 4.603787e-05 -0.06451966 0.078806736 -0.019997414
0.032452777 2.7028558e-05 0.000537457 -4.897348e-06 -6.9627076e-06 0.09437581 -0.15646064 0.047178227
0.14554256 -0.03572909 -0.01937089 0.09183345 -7.346698e-06 0.10611664 -0.0115284575 -2.51018e-06
-1.8299154e-06 0.094350554 0.063334994 -0.09629677 0.20783395 0.009938707 0.02276542 0.025430795
0.11593522 -2.6061498e-05 1.5627476e-05 0.0387403 -0.023669945 -0.13544647 9.037242e-05 -3.5933074e-06
0.029362489 0.14195603 -4.0015707e-06 0.12631491 0.11417616 -3.7404785e-05 -0.0084371455 3.640494e-06
0.1646899 0.023016026 -0.042174418 0.025130728 0.06812032 0.095695466 0.0003444191 -0.036494207
-0.000121926365 -0.043519024 -0.1696455 0.05256142 0.10348662 0.22213915 0.0034179306 -0.013023921
-0.03828409 -0.1654376 -5.2124888e-06 -0.01872324 7.5063913e-06 -0.014751978 0.17760818 0.07886115
-0.04086331 -0.0011665584 0.0024343757 3.8791604e-06 -2.5668402e-05 0.0726916 -0.111173384 -0.009064494
0.05863091 -0.07109969 -0.007955998 0.08524567 -6.9137077e-06 0.118082814 0.030827874 3.207776e-05
-1.1258969e-05 0.07911091 0.04144699 -0.1303018 0.08203214 -0.00056934817 0.027906964 -0.0023789497
0.11393037 -2.5355068e-05 6.904715e-05 -0.056595832 0.082709536 -0.12377099 -0.023926778 4.0222735e-06
-0.057840742 -0.12508604 -4.9976443e-06 -0.085352235 -0.08958891 -2.6591977e-05 -0.040445946 -5.2041055e-06
-0.09982864 -0.10035131 -0.07096877 -0.037411373 -0.01816051 0.022160742 -9.449983e-05 -0.010876173
0.00016603664 -0.014405891 -0.051871605 -0.046276834 -0.16548583 0.14164723 -0.020920724 -0.085293986
-0.015252773 0.1091945 7.3545166e-06 -0.0051524583 -2.287201e-05 -0.019540299 -0.07050103 -0.050008178
-0.09382493 -2.4296729e-05 0.0010515099 -2.518184e-07 1.7693288e-05 -0.120793335 -0.042484786 -0.07779569
-0.018802451 -0.05332396 -0.0062882164 -0.13400212 7.954544e-06 0.002038322 -0.041456115 1.1475942e-05
1.4170901e-05 -0.092847414 -0.0426955 0.1139019 0.14137164 0.0021287517 -0.021822382 -0.04609329
-0.029305095 -1.7913583e-06 6.982122e-05 0.05361754 -0.021677556 0.15294991 0.0015388691 -2.5360973e-06
0.00754583 0.04730767 -3.9538954e-06 0.14208843 0.088798665 3.6728215e-05 0.053976186 5.89124e-06
0.17268537 0.12658028 0.033403635 0.028518042 0.04384234 0.12638122 8.34517e-05 0.017389277
-5.4856464e-05 0.12702489 -0.014116228 0.13012743 0.028534733 -0.03564036 -0.01167289 0.056610934
-0.011418191 -0.16474971 3.468289e-06 0.076652735 2.192837e-05 -0.09745347 0.07200732 0.13617165
0.08263021 -4.576431e-06 0.0005142558 1.1965483e-06 -1.1240327e-05 -0.0157621 0.036884014 -0.028392162
0.17829978 0.03543013 -0.0041968585 0.10833256 2.2312227e-06 0.11295691 0.021053897 -5.421998e-07
-1.832524e-05 0.03820391 0.005831166 -0.011604842 0.012450392 0.018187432 0.065975375 0.1305452
0.021214591 8.549298e-06 -2.913628e-05 -0.023680473 0.057011615 -0.15781681 -6.4774335e-06 -1.1588793e-06
00000000: cbfb 65bc 7d25 443e 3a78 4236 e419 203e
00000010: 134e 1cbc ca48 1c3a c991 003c 2be1 9736
00000020: c4f1 b6bc c39a 013e 7a68 7e3d 22d4 b93c
00000030: 117d a53d e30a c03d a39f 013b 3271 353c
00000040: 6336 5fb9 5edb ef3d 55ed fbbe 29fa 8cbc
00000050: 8e06 d13b 4835 193e 69eb a63c bfc5 e73c
00000060: 07e0 003e 572e fa3c 29b6 91b6 cced 9fba
00000070: c918 4138 e222 84bd 6d65 a13d 9ed1 a3bc
00000080: 34ed 043d 63bb e237 21e4 0c3a e653 a4b6
00000090: 34a1 e9b6 1b48 c13d 3837 20be f53d 413d
000000a0: 1c09 153e ab58 12bd b3af 9ebc 2d13 bc3d
000000b0: a883 f6b6 ae53 d93d dbe1 3cbc 9074 28b6
000000c0: 6a9b f5b5 dd3a c13d c7b5 813d 3e37 c5bd
000000d0: 6cd2 543e f5d5 223c 8c7e ba3c 3e54 d03c
000000e0: 726f ed3d a49e dab7 c017 8337 26ae 1e3d
000000f0: 79e7 c1bc 7bb2 0abe 5386 bd38 8d24 71b6
00000100: 9a89 f03c ec5c 113e 3b45 86b6 b258 013e
00000110: 31d5 e93d 15e3 1cb8 f43b 0abc 364f 7436
00000120: 78a4 283e 1b8c bc3c 15bf 2cbd f5de cd3c
00000130: ab82 8b3d fcfb c33d 2693 b439 f37a 15bd
00000140: b8b2 ffb8 0141 32bd 8db7 2dbe a54a 573d
00000150: cbf0 d33d 7278 633e 5cff 5f3b 4962 55bc
00000160: c7cf 1cbd 7968 29be f0e6 aeb6 7b61 99bc
00000170: 69df fb36 48b2 71bc ebde 353e f481 a13d
00000180: 4960 27bd 34e7 98ba 0c8a 1f3b bc29 8236
00000190: 7952 d7b7 55df 943d dfae e3bd 3e83 14bc
000001a0: f726 703d b79c 91bd e059 02bc 4895 ae3d
000001b0: 4cfc e7b6 67d5 f13d bd8a fc3c 3c8b 0638
000001c0: e7e4 3cb7 e704 a23d 52c4 293d d66d 05be
000001d0: 7700 a83d 4f40 15ba 259d e43c 27e8 1bbb
000001e0: 5354 e93d 98b1 d4b7 68cd 9038 08d1 67bd
000001f0: 9e63 a93d a57b fdbd 1702 c4bc 11f7 8636
00000200: 6aea 6cbd 8e16 00be 70b1 a7b6 27cd aebd
00000210: 647a b7bd d611 dfb7 a6aa 25bd ed9e aeb6
00000220: f572 ccbd fd84 cdbd 1358 91bd ab3c 19bd
00000230: 5ac5 94bc 728a b53c 362e c6b8 fa31 32bc
00000240: 1f1a 2e39 b006 6cbc 5277 54bd c78c 3dbd
00000250: 1e75 29be f90b 113e f061 abbc 9dae aebd
00000260: c4e6 79bc 5ea1 df3d d1c6 f636 f4d5 a8bb
00000270: 44dd bfb7 fa12 a0bc d862 90bd 60d5 4cbd
00000280: 4927 c0bd d4d0 cbb7 d1d2 893a a831 87b4
00000290: 0c6c 9437 7f62 f7bd 8704 2ebd 5953 9fbd
000002a0: 9907 9abc 3a6a 5abd 620d cebb da37 09be
000002b0: 8274 0537 5e95 053b e3cd 29bd cc88 4037
000002c0: 8ebf 6d37 c926 bebd 7ae1 2ebd 6645 e93d
000002d0: bac3 103e 8782 0b3b dac4 b2bc 51cc 3cbd
000002e0: 3d11 f0bc 9a6e f0b5 fb6c 9238 119e 5b3d
000002f0: 2195 b1bc e79e 1c3e e1b3 c93a d231 2ab6
00000300: 0343 f73b b0c5 413d b4ab 84b6 a17f 113e
00000310: 13dc b53d 9f0c 1a38 2216 5d3d 5ead c536
00000320: 6fd4 303e 439e 013e 40d2 083d ab9e e93c
00000330: 0794 333d 146a 013e ca02 af38 f573 8e3c
00000340: ae15 66b8 d012 023e c047 67bc 2040 053e
00000350: acc1 e93c a0fb 11bd a63f 3fbc dee0 673d
00000360: 5d13 3bbc 26b4 28be c0c0 6836 1cfc 9c3d
00000370: d1f2 b737 af95 c7bd 9378 933d 9570 0b3e
00000380: 073a a93d 3e8f 99b6 1fcf 063a 1699 a035
00000390: d694 3cb7 851f 81bc b113 173d ae96 e8bc
000003a0: 3894 363e 2f1f 113d cd85 89bb 76dd dd3d
000003b0: 1dbc 1536 f455 e73d 3979 ac3c b08b 11b5
000003c0: 27b9 99b7 b47b 1c3d 5e13 bf3b 3c22 3ebc
000003d0: bbfc 4b3c cffd 943c 191e 873d a4ad 053e
000003e0: 39ca ad3c f56e 0f37 af69 f4b7 8dfd c1bc
000003f0: 0385 693d bb9a 21be bb58 d9b6 ca8a 9bb5
